…
where the output channel contains the predicted classes for the\ninput pixel at the same spatial position.\nt\nFig. 14.11.1\nFully convolutional network.\nBelow, we use a ResNet-18 model pretrained on the ImageNet dataset to extract image fea-\ntures and denote the model instance as pretrained_net. The last few layers of this model\ninclude a global average pooling layer and a fully connected layer: they are not needed in the\nfully convolutional network.\npretrained_net = torchvision.models.resnet18(pretrained=True)\nlist(pretrained_net.children())[-3:]\n[Sequential(\n(0): BasicBlock(\n(conv1): Conv2d(256, 512, kernel_size=(3, 3), stride=(2, 2), padding=(1,␣\n,→1), bias=False)\n(bn1): BatchNorm2d(512, eps=1e-05, momentum=0.1, affine=True, track_\n,→running_stats=True)\n(relu): ReLU(inplace=True)\n(conv2): Conv2d(512, 512, kernel_size=(3, 3), stride=(1, 1), padding=(1,␣\n,→1), bias=False)\n(bn2): BatchNorm2d(512, eps=1e-05, momentum=0.1, affine=True, track_\n,→running_stats=True)\n(continues on next page)\n\n686\nComputer Vision\n(continued from previous page)\n(downsample): Sequential(\n(0): Conv2d(256, 512, kernel_size=(1, 1), stride=(2, 2), bias=False)\n(1): BatchNorm2d(512, eps=1e-05, momentum=0.1, affine=True, track_\n,→running_stats=True)\n)\n)\n(1): BasicBlock(\n(conv1): Conv2d(512, 512, kernel_size=(3, 3), stride=(1, 1), padding=(1,␣\n,→1), bias=False)\n(bn1): BatchNorm2d(512, eps=1e-05, momentum=0.1, affine=True, track_\n,→running_stats=True)\n(relu): ReLU(inplace=True)\n(conv2): Conv2d(512, 512, kernel_size=(3, 3), stride=(1, 1), padding=(1,␣\n,→1), bias=False)\n(bn2): BatchNorm2d(512, eps=1e-05, momentum=0.1, affine=True, track_\n,→running_stats=True)\n)\n),\nAdaptiveAvgPool2d(output_size=(1, 1)),\nLinear(in_features=512, out_features=1000, bias=True)]\nNext, we create the fully convolutional network instance net. It copies all the pretrained layers\nin the ResNet-18 except for the ﬁnal global average pooling layer and the fully connected layer\nthat are closest to the out
…
